…
  is_train: True
  root_path: /media/phips/HD2/Training/dir0000.chk

2023-05-03 16:33:57,173 INFO: Dataset [PairedImageDataset] - HFA2k is built.
2023-05-03 16:33:57,173 INFO: Training statistics:
	Number of train images: 2568
	Dataset enlarge ratio: 1
	Batch size per gpu: 10
	World size (gpu number): 1
	Require iter number per epoch: 257
	Total epochs: 390; iters: 100000.
2023-05-03 16:33:57,179 INFO: Network [SRVGGNetCompact] is created.
2023-05-03 16:33:59,240 INFO: Network: SRVGGNetCompact, with parameters: 595,459
2023-05-03 16:33:59,240 INFO: SRVGGNetCompact(
  (body): ModuleList(
    (0): Conv2d(3, 64, kernel_size=(3, 3), stride=(1, 1), padding=(1, 1))
    (1): PReLU(num_parameters=64)
    (2): Conv2d(64, 64, kernel_size=(3, 3), stride=(1, 1), padding=(1, 1))
    (3): PReLU(num_parameters=64)
    (4): Conv2d(64, 64, kernel_size=(3, 3), stride=(1, 1), padding=(1, 1))
    (5): PReLU(num_parameters=64)
    (6): Conv2d(64, 64, kernel_size=(3, 3), stride=(1, 1), padding=(1, 1))
    (7): PReLU(num_parameters=64)
    (8): Conv2d(64, 64, kernel_size=(3, 3), stride=(1, 1), padding=(1, 1))
    (9): PReLU(num_parameters=64)
    (10): Conv2d(64, 64, kernel_size=(3, 3), stride=(1, 1), padding=(1, 1))
    (11): PReLU(num_parameters=64)
    (12): Conv2d(64, 64, kernel_size=(3, 3), stride=(1, 1), padding=(1, 1))
    (13): PReLU(num_parameters=64)
    (14): Conv2d(64, 64, kernel_size=(3, 3), stride=(1, 1), padding=(1, 1))
    (15): PReLU(num_parameters=64)
    (16): Conv2d(64, 64, kernel_size=(3, 3), stride=(1, 1), padding=(1, 1))
    (17): PReLU(num_parameters=64)
    (18): Conv2d(64, 64, kernel_size=(3, 3), stride=(1, 1), padding=(1, 1))
    (19): PReLU(num_parameters=64)
    (20): Conv2d(64, 64, kernel_size=(3, 3), stride=(1, 1), padding=(1, 1))
    (21): PReLU(num_parameters=64)
    (22): Conv2d(64, 64, kernel_size=(3, 3), stride=(1, 1), padding=(1, 1))
    (23): PReLU(num_parameters=64)
    (24): Conv2d(64, 64, kernel_size=(3, 3), stride=(1, 1), padding=(1, 1))
    (25): PReLU(num_parameters=64)
    (26): Conv2d(64, 64, kernel_size=(3, 3), stride=(1, 1), padding=(1, 1))
    (27): PReLU(num_parameters=64)
    (28): Conv2d(64, 64, kernel_size=(3, 3), stride=(1, 1), padding=(1, 1))
    (29): PReLU(num_parameters=64)
    (30): Conv2d(64, 64, kernel_size=(3, 3), stride=(1, 1), padding=(1, 1))
    (31): PReLU(num_parameters=64)
    (32): Conv2d(64, 64, kernel_size=(3, 3), stride=(1, 1), padding=(1, 1))
    (33): PReLU(num_parameters=64)
    (34): Conv2d(64, 3, kernel_size=(3, 3), stride=(1, 1), padding=(1, 1))
  )
  (upsampler): PixelShuffle(upscale_factor=1)
)
2023-05-03 16:33:59,240 INFO: Use Exponential Moving Average with decay: 0.999
2023-05-03 16:33:59,244 INFO: Network [SRVGGNetCompact] is created.
2023-05-03 16:33:59,267 INFO: Network [UNetDiscriminatorSN] is created.
2023-05-03 16:33:59,271 INFO: Network: UNetDiscriminatorSN, with parameters: 4,376,897
2023-05-03 16:33:59,271 INFO: UNetDiscriminatorSN(
  (conv0): Conv2d(3, 64, kernel_size=(3, 3), stride=(1, 1), padding=(1, 1))
  (conv1): Conv2d(64, 128, kernel_size=(4, 4), stride=(2, 2), padding=(1, 1), bias=False)
  (conv2): Conv2d(128, 256, kernel_size=(4, 4), stride=(2, 2), padding=(1, 1), bias=False)
  (conv3): Conv2d(256, 512, kernel_size=(4, 4), stride=(2, 2), padding=(1, 1), bias=False)
  (conv4): Conv2d(512, 256, kernel_size=(3, 3), stride=(1, 1), padding=(1, 1), bias=False)
  (conv5): Conv2d(256, 128, kernel_size=(3, 3), stride=(1, 1), padding=(1, 1), bias=False)
  (conv6): Conv2d(128, 64, kernel_size=(3, 3), stride=(1, 1), padding=(1, 1), bias=False)
  (conv7): Conv2d(64, 64, kernel_size=(3, 3), stride=(1, 1), padding=(1, 1), bias=False)
  (conv8): Conv2d(64, 64, kernel_size=(3, 3), stride=(1, 1), padding=(1, 1), bias=False)
  (conv9): Conv2d(64, 1, kernel_size=(3, 3), stride=(1, 1), padding=(1, 1))
)
2023-05-03 16:33:59,271 INFO: Loss [L1Loss] is created.
2023-05-03 16:34:00,143 INFO: Loss [PerceptualLoss] is created.
2023-05-03 16:34:00,154 INFO: Loss [GANLoss] is created.
2023-05-03 16:34:00,173 INFO: Model [RealESRGANModel] is created.
2023-05-03 16:34:00,311 INFO: Start training from epoch: 0, iter: 0
2023-05-03 16:34:57,655 INFO: [1xuns..][epoch:  0, iter:     100, lr:(1.000e-04,)] [eta: 15:04:45, time (data): 0.573 (0.088)] l_g_pix: 6.8970e-02 l_g_percep: 1.2952e+00 l_g_gan: 7.0760e-02 l_d_real: 6.9469e-01 out_d_real: -1.8962e-03 l_d_fake: 6.7994e-01 out_d_fake: -2.7679e-02 
…
