…
        type: calculate_psnr
        crop_border: 4
        test_y_channel: True
      ]
      ssim:[
        type: calculate_ssim
        crop_border: 4
        test_y_channel: True
      ]
    ]
  ]
  dist: False
  rank: 0
  world_size: 1
  auto_resume: False
  is_train: False

2023-06-10 01:00:03,090 INFO: Dataset [PairedImageDataset] - LUDVAE_TEST is built.
2023-06-10 01:00:03,090 INFO: Number of test images in LUDVAE_TEST: 14
2023-06-10 01:00:03,096 INFO: Network [SAFMN] is created.
2023-06-10 01:00:03,486 INFO: Network: SAFMN, with parameters: 239,520
2023-06-10 01:00:03,486 INFO: SAFMN(
  (to_feat): Conv2d(3, 36, kernel_size=(3, 3), stride=(1, 1), padding=(1, 1))
  (feats): Sequential(
    (0): AttBlock(
      (norm1): LayerNorm()
      (norm2): LayerNorm()
      (safm): SAFM(
        (mfr): ModuleList(
          (0-3): 4 x Conv2d(9, 9, kernel_size=(3, 3), stride=(1, 1), padding=(1, 1), groups=9)
        )
        (aggr): Conv2d(36, 36, kernel_size=(1, 1), stride=(1, 1))
        (act): GELU(approximate='none')
      )
      (ccm): CCM(
        (ccm): Sequential(
          (0): Conv2d(36, 72, kernel_size=(3, 3), stride=(1, 1), padding=(1, 1))
          (1): GELU(approximate='none')
          (2): Conv2d(72, 36, kernel_size=(1, 1), stride=(1, 1))
        )
      )
    )
    (1): AttBlock(
      (norm1): LayerNorm()
      (norm2): LayerNorm()
      (safm): SAFM(
        (mfr): ModuleList(
          (0-3): 4 x Conv2d(9, 9, kernel_size=(3, 3), stride=(1, 1), padding=(1, 1), groups=9)
        )
        (aggr): Conv2d(36, 36, kernel_size=(1, 1), stride=(1, 1))
        (act): GELU(approximate='none')
      )
      (ccm): CCM(
        (ccm): Sequential(
          (0): Conv2d(36, 72, kernel_size=(3, 3), stride=(1, 1), padding=(1, 1))
          (1): GELU(approximate='none')
          (2): Conv2d(72, 36, kernel_size=(1, 1), stride=(1, 1))
        )
      )
    )
    (2): AttBlock(
      (norm1): LayerNorm()
      (norm2): LayerNorm()
      (safm): SAFM(
        (mfr): ModuleList(
          (0-3): 4 x Conv2d(9, 9, kernel_size=(3, 3), stride=(1, 1), padding=(1, 1), groups=9)
        )
        (aggr): Conv2d(36, 36, kernel_size=(1, 1), stride=(1, 1))
        (act): GELU(approximate='none')
      )
      (ccm): CCM(
        (ccm): Sequential(
          (0): Conv2d(36, 72, kernel_size=(3, 3), stride=(1, 1), padding=(1, 1))
          (1): GELU(approximate='none')
          (2): Conv2d(72, 36, kernel_size=(1, 1), stride=(1, 1))
        )
      )
    )
    (3): AttBlock(
      (norm1): LayerNorm()
      (norm2): LayerNorm()
      (safm): SAFM(
        (mfr): ModuleList(
          (0-3): 4 x Conv2d(9, 9, kernel_size=(3, 3), stride=(1, 1), padding=(1, 1), groups=9)
        )
        (aggr): Conv2d(36, 36, kernel_size=(1, 1), stride=(1, 1))
        (act): GELU(approximate='none')
      )
      (ccm): CCM(
        (ccm): Sequential(
          (0): Conv2d(36, 72, kernel_size=(3, 3), stride=(1, 1), padding=(1, 1))
          (1): GELU(approximate='none')
          (2): Conv2d(72, 36, kernel_size=(1, 1), stride=(1, 1))
        )
      )
    )
    (4): AttBlock(
      (norm1): LayerNorm()
      (norm2): LayerNorm()
      (safm): SAFM(
        (mfr): ModuleList(
          (0-3): 4 x Conv2d(9, 9, kernel_size=(3, 3), stride=(1, 1), padding=(1, 1), groups=9)
        )
        (aggr): Conv2d(36, 36, kernel_size=(1, 1), stride=(1, 1))
        (act): GELU(approximate='none')
      )
      (ccm): CCM(
        (ccm): Sequential(
          (0): Conv2d(36, 72, kernel_size=(3, 3), stride=(1, 1), padding=(1, 1))
          (1): GELU(approximate='none')
          (2): Conv2d(72, 36, kernel_size=(1, 1), stride=(1, 1))
        )
      )
    )
    (5): AttBlock(
      (norm1): LayerNorm()
      (norm2): LayerNorm()
      (safm): SAFM(
        (mfr): ModuleList(
          (0-3): 4 x Conv2d(9, 9, kernel_size=(3, 3), stride=(1, 1), padding=(1, 1), groups=9)
        )
        (aggr): Conv2d(36, 36, kernel_size=(1, 1), stride=(1, 1))
        (act): GELU(approximate='none')
      )
      (ccm): CCM(
        (ccm): Sequential(
          (0): Conv2d(36, 72, kernel_size=(3, 3), stride=(1, 1), padding=(1, 1))
          (1): GELU(approximate='none')
          (2): Conv2d(72, 36, kernel_size=(1, 1), stride=(1, 1))
        )
      )
    )
    (6): AttBlock(
      (norm1): LayerNorm()
      (norm2): LayerNorm()
      (safm): SAFM(
        (mfr): ModuleList(
          (0-3): 4 x Conv2d(9, 9, kernel_size=(3, 3), stride=(1, 1), padding=(1, 1), groups=9)
        )
        (aggr): Conv2d(36, 36, kernel_size=(1, 1), stride=(1, 1))
        (act): GELU(approximate='none')
      )
      (ccm): CCM(
        (ccm): Sequential(
          (0): Conv2d(36, 72, kernel_size=(3, 3), stride=(1, 1), padding=(1, 1))
          (1): GELU(approximate='none')
          (2): Conv2d(72, 36, kernel_size=(1, 1), stride=(1, 1))
        )
      )
    )
    (7): AttBlock(
      (norm1): LayerNorm()
      (norm2): LayerNorm()
      (safm): SAFM(
        (mfr): ModuleList(
          (0-3): 4 x Conv2d(9, 9, kernel_size=(3, 3), stride=(1, 1), padding=(1, 1), groups=9)
        )
        (aggr): Conv2d(36, 36, kernel_size=(1, 1), stride=(1, 1))
        (act): GELU(approximate='none')
      )
      (ccm): CCM(
        (ccm): Sequential(
          (0): Conv2d(36, 72, kernel_size=(3, 3), stride=(1, 1), padding=(1, 1))
          (1): GELU(approximate='none')
          (2): Conv2d(72, 36, kernel_size=(1, 1), stride=(1, 1))
        )
      )
    )
  )
  (to_img): Sequential(
    (0): Conv2d(36, 48, kernel_size=(3, 3), stride=(1, 1), padding=(1, 1))
    (1): PixelShuffle(upscale_factor=4)
  )
)
2023-06-10 01:00:03,492 INFO: Loading SAFMN model from /home/phips/Documents/SAFMN/experiments/4xHFA2kLUDVAESAFMN/models/net_g_245000.pth, with param key: [params].
2023-06-10 01:00:03,500 INFO: Model [SRModel] is created.
2023-06-10 01:00:03,500 INFO: Testing LUDVAE_TEST...
2023-06-10 01:00:08,059 INFO: Validation LUDVAE_TEST
…
