…
  is_train: True
  root_path: /media/phips/HD2/Training/dir0000.chk

2023-05-01 09:52:26,314 INFO: Dataset [PairedImageDataset] - Nomos8k_sfw is built.
2023-05-01 09:52:26,315 INFO: Training statistics:
	Number of train images: 6118
	Dataset enlarge ratio: 1
	Batch size per gpu: 10
	World size (gpu number): 1
	Require iter number per epoch: 612
	Total epochs: 164; iters: 100000.
2023-05-01 09:52:26,321 INFO: Network [SRVGGNetCompact] is created.
2023-05-01 09:52:28,443 INFO: Network: SRVGGNetCompact, with parameters: 595,459
2023-05-01 09:52:28,443 INFO: SRVGGNetCompact(
  (body): ModuleList(
    (0): Conv2d(3, 64, kernel_size=(3, 3), stride=(1, 1), padding=(1, 1))
    (1): PReLU(num_parameters=64)
    (2): Conv2d(64, 64, kernel_size=(3, 3), stride=(1, 1), padding=(1, 1))
    (3): PReLU(num_parameters=64)
    (4): Conv2d(64, 64, kernel_size=(3, 3), stride=(1, 1), padding=(1, 1))
    (5): PReLU(num_parameters=64)
    (6): Conv2d(64, 64, kernel_size=(3, 3), stride=(1, 1), padding=(1, 1))
    (7): PReLU(num_parameters=64)
    (8): Conv2d(64, 64, kernel_size=(3, 3), stride=(1, 1), padding=(1, 1))
    (9): PReLU(num_parameters=64)
    (10): Conv2d(64, 64, kernel_size=(3, 3), stride=(1, 1), padding=(1, 1))
    (11): PReLU(num_parameters=64)
    (12): Conv2d(64, 64, kernel_size=(3, 3), stride=(1, 1), padding=(1, 1))
    (13): PReLU(num_parameters=64)
    (14): Conv2d(64, 64, kernel_size=(3, 3), stride=(1, 1), padding=(1, 1))
    (15): PReLU(num_parameters=64)
    (16): Conv2d(64, 64, kernel_size=(3, 3), stride=(1, 1), padding=(1, 1))
    (17): PReLU(num_parameters=64)
    (18): Conv2d(64, 64, kernel_size=(3, 3), stride=(1, 1), padding=(1, 1))
    (19): PReLU(num_parameters=64)
    (20): Conv2d(64, 64, kernel_size=(3, 3), stride=(1, 1), padding=(1, 1))
    (21): PReLU(num_parameters=64)
    (22): Conv2d(64, 64, kernel_size=(3, 3), stride=(1, 1), padding=(1, 1))
    (23): PReLU(num_parameters=64)
    (24): Conv2d(64, 64, kernel_size=(3, 3), stride=(1, 1), padding=(1, 1))
    (25): PReLU(num_parameters=64)
    (26): Conv2d(64, 64, kernel_size=(3, 3), stride=(1, 1), padding=(1, 1))
    (27): PReLU(num_parameters=64)
    (28): Conv2d(64, 64, kernel_size=(3, 3), stride=(1, 1), padding=(1, 1))
    (29): PReLU(num_parameters=64)
    (30): Conv2d(64, 64, kernel_size=(3, 3), stride=(1, 1), padding=(1, 1))
    (31): PReLU(num_parameters=64)
    (32): Conv2d(64, 64, kernel_size=(3, 3), stride=(1, 1), padding=(1, 1))
    (33): PReLU(num_parameters=64)
    (34): Conv2d(64, 3, kernel_size=(3, 3), stride=(1, 1), padding=(1, 1))
  )
  (upsampler): PixelShuffle(upscale_factor=1)
)
2023-05-01 09:52:28,443 INFO: Use Exponential Moving Average with decay: 0.999
2023-05-01 09:52:28,447 INFO: Network [SRVGGNetCompact] is created.
2023-05-01 09:52:28,472 INFO: Network [UNetDiscriminatorSN] is created.
2023-05-01 09:52:28,476 INFO: Network: UNetDiscriminatorSN, with parameters: 4,376,897
2023-05-01 09:52:28,476 INFO: UNetDiscriminatorSN(
  (conv0): Conv2d(3, 64, kernel_size=(3, 3), stride=(1, 1), padding=(1, 1))
  (conv1): Conv2d(64, 128, kernel_size=(4, 4), stride=(2, 2), padding=(1, 1), bias=False)
  (conv2): Conv2d(128, 256, kernel_size=(4, 4), stride=(2, 2), padding=(1, 1), bias=False)
  (conv3): Conv2d(256, 512, kernel_size=(4, 4), stride=(2, 2), padding=(1, 1), bias=False)
  (conv4): Conv2d(512, 256, kernel_size=(3, 3), stride=(1, 1), padding=(1, 1), bias=False)
  (conv5): Conv2d(256, 128, kernel_size=(3, 3), stride=(1, 1), padding=(1, 1), bias=False)
  (conv6): Conv2d(128, 64, kernel_size=(3, 3), stride=(1, 1), padding=(1, 1), bias=False)
  (conv7): Conv2d(64, 64, kernel_size=(3, 3), stride=(1, 1), padding=(1, 1), bias=False)
  (conv8): Conv2d(64, 64, kernel_size=(3, 3), stride=(1, 1), padding=(1, 1), bias=False)
  (conv9): Conv2d(64, 1, kernel_size=(3, 3), stride=(1, 1), padding=(1, 1))
)
2023-05-01 09:52:28,476 INFO: Loss [L1Loss] is created.
2023-05-01 09:52:30,003 INFO: Loss [PerceptualLoss] is created.
2023-05-01 09:52:30,015 INFO: Loss [GANLoss] is created.
2023-05-01 09:52:30,036 INFO: Model [RealESRGANModel] is created.
2023-05-01 09:52:30,107 INFO: Start training from epoch: 0, iter: 0
2023-05-01 09:53:23,467 INFO: [1xunv..][epoch:  0, iter:     100, lr:(1.000e-04,)] [eta: 14:01:13, time (data): 0.534 (0.003)] l_g_pix: 2.1865e-02 l_g_percep: 6.5831e-01 l_g_gan: 7.1517e-02 l_d_real: 7.0334e-01 out_d_real: -1.5668e-02 l_d_fake: 6.7503e-01 out_d_fake: -4.0316e-02 
…
