…
        type: calculate_psnr
        crop_border: 4
        test_y_channel: False
      ]
      ssim:[
        type: calculate_ssim
        crop_border: 4
        test_y_channel: False
      ]
    ]
  ]
  dist: False
  rank: 0
  world_size: 1
  auto_resume: False
  is_train: False

2023-06-10 22:06:05,312 INFO: Dataset [PairedImageDataset] - LUDVAE_TEST is built.
2023-06-10 22:06:05,312 INFO: Number of test images in LUDVAE_TEST: 14
2023-06-10 22:06:05,350 INFO: Network [SwinIR] is created.
2023-06-10 22:06:06,093 INFO: Network: SwinIR, with parameters: 929,628
2023-06-10 22:06:06,093 INFO: SwinIR(
  (conv_first): Conv2d(3, 60, kernel_size=(3, 3), stride=(1, 1), padding=(1, 1))
  (patch_embed): PatchEmbed(
    (norm): LayerNorm((60,), eps=1e-05, elementwise_affine=True)
  )
  (patch_unembed): PatchUnEmbed()
  (pos_drop): Dropout(p=0.0, inplace=False)
  (layers): ModuleList(
    (0): RSTB(
      (residual_group): BasicLayer(
        dim=60, input_resolution=(64, 64), depth=6
        (blocks): ModuleList(
          (0): SwinTransformerBlock(
            dim=60, input_resolution=(64, 64), num_heads=6, window_size=8, shift_size=0, mlp_ratio=2
            (norm1): LayerNorm((60,), eps=1e-05, elementwise_affine=True)
            (attn): WindowAttention(
              dim=60, window_size=(8, 8), num_heads=6
              (qkv): Linear(in_features=60, out_features=180, bias=True)
              (attn_drop): Dropout(p=0.0, inplace=False)
              (proj): Linear(in_features=60, out_features=60, bias=True)
              (proj_drop): Dropout(p=0.0, inplace=False)
              (softmax): Softmax(dim=-1)
            )
            (drop_path): Identity()
            (norm2): LayerNorm((60,), eps=1e-05, elementwise_affine=True)
            (mlp): Mlp(
              (fc1): Linear(in_features=60, out_features=120, bias=True)
              (act): GELU(approximate='none')
              (fc2): Linear(in_features=120, out_features=60, bias=True)
              (drop): Dropout(p=0.0, inplace=False)
            )
          )
          (1): SwinTransformerBlock(
            dim=60, input_resolution=(64, 64), num_heads=6, window_size=8, shift_size=4, mlp_ratio=2
            (norm1): LayerNorm((60,), eps=1e-05, elementwise_affine=True)
            (attn): WindowAttention(
              dim=60, window_size=(8, 8), num_heads=6
              (qkv): Linear(in_features=60, out_features=180, bias=True)
              (attn_drop): Dropout(p=0.0, inplace=False)
              (proj): Linear(in_features=60, out_features=60, bias=True)
              (proj_drop): Dropout(p=0.0, inplace=False)
              (softmax): Softmax(dim=-1)
            )
            (drop_path): DropPath()
            (norm2): LayerNorm((60,), eps=1e-05, elementwise_affine=True)
            (mlp): Mlp(
              (fc1): Linear(in_features=60, out_features=120, bias=True)
              (act): GELU(approximate='none')
              (fc2): Linear(in_features=120, out_features=60, bias=True)
              (drop): Dropout(p=0.0, inplace=False)
            )
          )
          (2): SwinTransformerBlock(
            dim=60, input_resolution=(64, 64), num_heads=6, window_size=8, shift_size=0, mlp_ratio=2
            (norm1): LayerNorm((60,), eps=1e-05, elementwise_affine=True)
            (attn): WindowAttention(
              dim=60, window_size=(8, 8), num_heads=6
              (qkv): Linear(in_features=60, out_features=180, bias=True)
              (attn_drop): Dropout(p=0.0, inplace=False)
              (proj): Linear(in_features=60, out_features=60, bias=True)
              (proj_drop): Dropout(p=0.0, inplace=False)
              (softmax): Softmax(dim=-1)
            )
            (drop_path): DropPath()
            (norm2): LayerNorm((60,), eps=1e-05, elementwise_affine=True)
            (mlp): Mlp(
              (fc1): Linear(in_features=60, out_features=120, bias=True)
              (act): GELU(approximate='none')
              (fc2): Linear(in_features=120, out_features=60, bias=True)
              (drop): Dropout(p=0.0, inplace=False)
            )
          )
          (3): SwinTransformerBlock(
            dim=60, input_resolution=(64, 64), num_heads=6, window_size=8, shift_size=4, mlp_ratio=2
            (norm1): LayerNorm((60,), eps=1e-05, elementwise_affine=True)
            (attn): WindowAttention(
              dim=60, window_size=(8, 8), num_heads=6
              (qkv): Linear(in_features=60, out_features=180, bias=True)
              (attn_drop): Dropout(p=0.0, inplace=False)
              (proj): Linear(in_features=60, out_features=60, bias=True)
              (proj_drop): Dropout(p=0.0, inplace=False)
              (softmax): Softmax(dim=-1)
            )
            (drop_path): DropPath()
            (norm2): LayerNorm((60,), eps=1e-05, elementwise_affine=True)
            (mlp): Mlp(
              (fc1): Linear(in_features=60, out_features=120, bias=True)
              (act): GELU(approximate='none')
              (fc2): Linear(in_features=120, out_features=60, bias=True)
              (drop): Dropout(p=0.0, inplace=False)
            )
          )
          (4): SwinTransformerBlock(
            dim=60, input_resolution=(64, 64), num_heads=6, window_size=8, shift_size=0, mlp_ratio=2
            (norm1): LayerNorm((60,), eps=1e-05, elementwise_affine=True)
            (attn): WindowAttention(
              dim=60, window_size=(8, 8), num_heads=6
              (qkv): Linear(in_features=60, out_features=180, bias=True)
              (attn_drop): Dropout(p=0.0, inplace=False)
              (proj): Linear(in_features=60, out_features=60, bias=True)
              (proj_drop): Dropout(p=0.0, inplace=False)
              (softmax): Softmax(dim=-1)
            )
            (drop_path): DropPath()
            (norm2): LayerNorm((60,), eps=1e-05, elementwise_affine=True)
            (mlp): Mlp(
              (fc1): Linear(in_features=60, out_features=120, bias=True)
              (act): GELU(approximate='none')
              (fc2): Linear(in_features=120, out_features=60, bias=True)
              (drop): Dropout(p=0.0, inplace=False)
            )
          )
          (5): SwinTransformerBlock(
            dim=60, input_resolution=(64, 64), num_heads=6, window_size=8, shift_size=4, mlp_ratio=2
            (norm1): LayerNorm((60,), eps=1e-05, elementwise_affine=True)
            (attn): WindowAttention(
              dim=60, window_size=(8, 8), num_heads=6
              (qkv): Linear(in_features=60, out_features=180, bias=True)
              (attn_drop): Dropout(p=0.0, inplace=False)
              (proj): Linear(in_features=60, out_features=60, bias=True)
              (proj_drop): Dropout(p=0.0, inplace=False)
              (softmax): Softmax(dim=-1)
            )
            (drop_path): DropPath()
            (norm2): LayerNorm((60,), eps=1e-05, elementwise_affine=True)
            (mlp): Mlp(
              (fc1): Linear(in_features=60, out_features=120, bias=True)
              (act): GELU(approximate='none')
              (fc2): Linear(in_features=120, out_features=60, bias=True)
              (drop): Dropout(p=0.0, inplace=False)
            )
          )
        )
      )
      (conv): Conv2d(60, 60, kernel_size=(3, 3), stride=(1, 1), padding=(1, 1))
      (patch_embed): PatchEmbed()
      (patch_unembed): PatchUnEmbed()
    )
    (1-3): 3 x RSTB(
      (residual_group): BasicLayer(
        dim=60, input_resolution=(64, 64), depth=6
        (blocks): ModuleList(
          (0): SwinTransformerBlock(
            dim=60, input_resolution=(64, 64), num_heads=6, window_size=8, shift_size=0, mlp_ratio=2
            (norm1): LayerNorm((60,), eps=1e-05, elementwise_affine=True)
            (attn): WindowAttention(
              dim=60, window_size=(8, 8), num_heads=6
              (qkv): Linear(in_features=60, out_features=180, bias=True)
              (attn_drop): Dropout(p=0.0, inplace=False)
              (proj): Linear(in_features=60, out_features=60, bias=True)
              (proj_drop): Dropout(p=0.0, inplace=False)
              (softmax): Softmax(dim=-1)
            )
            (drop_path): DropPath()
            (norm2): LayerNorm((60,), eps=1e-05, elementwise_affine=True)
            (mlp): Mlp(
              (fc1): Linear(in_features=60, out_features=120, bias=True)
              (act): GELU(approximate='none')
              (fc2): Linear(in_features=120, out_features=60, bias=True)
              (drop): Dropout(p=0.0, inplace=False)
            )
          )
          (1): SwinTransformerBlock(
            dim=60, input_resolution=(64, 64), num_heads=6, window_size=8, shift_size=4, mlp_ratio=2
            (norm1): LayerNorm((60,), eps=1e-05, elementwise_affine=True)
            (attn): WindowAttention(
              dim=60, window_size=(8, 8), num_heads=6
              (qkv): Linear(in_features=60, out_features=180, bias=True)
              (attn_drop): Dropout(p=0.0, inplace=False)
              (proj): Linear(in_features=60, out_features=60, bias=True)
              (proj_drop): Dropout(p=0.0, inplace=False)
              (softmax): Softmax(dim=-1)
            )
            (drop_path): DropPath()
            (norm2): LayerNorm((60,), eps=1e-05, elementwise_affine=True)
            (mlp): Mlp(
              (fc1): Linear(in_features=60, out_features=120, bias=True)
              (act): GELU(approximate='none')
              (fc2): Linear(in_features=120, out_features=60, bias=True)
              (drop): Dropout(p=0.0, inplace=False)
            )
          )
          (2): SwinTransformerBlock(
            dim=60, input_resolution=(64, 64), num_heads=6, window_size=8, shift_size=0, mlp_ratio=2
            (norm1): LayerNorm((60,), eps=1e-05, elementwise_affine=True)
            (attn): WindowAttention(
              dim=60, window_size=(8, 8), num_heads=6
              (qkv): Linear(in_features=60, out_features=180, bias=True)
              (attn_drop): Dropout(p=0.0, inplace=False)
              (proj): Linear(in_features=60, out_features=60, bias=True)
              (proj_drop): Dropout(p=0.0, inplace=False)
              (softmax): Softmax(dim=-1)
            )
            (drop_path): DropPath()
            (norm2): LayerNorm((60,), eps=1e-05, elementwise_affine=True)
            (mlp): Mlp(
              (fc1): Linear(in_features=60, out_features=120, bias=True)
              (act): GELU(approximate='none')
              (fc2): Linear(in_features=120, out_features=60, bias=True)
              (drop): Dropout(p=0.0, inplace=False)
            )
          )
          (3): SwinTransformerBlock(
            dim=60, input_resolution=(64, 64), num_heads=6, window_size=8, shift_size=4, mlp_ratio=2
            (norm1): LayerNorm((60,), eps=1e-05, elementwise_affine=True)
            (attn): WindowAttention(
              dim=60, window_size=(8, 8), num_heads=6
              (qkv): Linear(in_features=60, out_features=180, bias=True)
              (attn_drop): Dropout(p=0.0, inplace=False)
              (proj): Linear(in_features=60, out_features=60, bias=True)
              (proj_drop): Dropout(p=0.0, inplace=False)
              (softmax): Softmax(dim=-1)
            )
            (drop_path): DropPath()
            (norm2): LayerNorm((60,), eps=1e-05, elementwise_affine=True)
            (mlp): Mlp(
              (fc1): Linear(in_features=60, out_features=120, bias=True)
              (act): GELU(approximate='none')
              (fc2): Linear(in_features=120, out_features=60, bias=True)
              (drop): Dropout(p=0.0, inplace=False)
            )
          )
          (4): SwinTransformerBlock(
            dim=60, input_resolution=(64, 64), num_heads=6, window_size=8, shift_size=0, mlp_ratio=2
            (norm1): LayerNorm((60,), eps=1e-05, elementwise_affine=True)
            (attn): WindowAttention(
              dim=60, window_size=(8, 8), num_heads=6
              (qkv): Linear(in_features=60, out_features=180, bias=True)
              (attn_drop): Dropout(p=0.0, inplace=False)
              (proj): Linear(in_features=60, out_features=60, bias=True)
              (proj_drop): Dropout(p=0.0, inplace=False)
              (softmax): Softmax(dim=-1)
            )
            (drop_path): DropPath()
            (norm2): LayerNorm((60,), eps=1e-05, elementwise_affine=True)
            (mlp): Mlp(
              (fc1): Linear(in_features=60, out_features=120, bias=True)
              (act): GELU(approximate='none')
              (fc2): Linear(in_features=120, out_features=60, bias=True)
              (drop): Dropout(p=0.0, inplace=False)
            )
          )
          (5): SwinTransformerBlock(
            dim=60, input_resolution=(64, 64), num_heads=6, window_size=8, shift_size=4, mlp_ratio=2
            (norm1): LayerNorm((60,), eps=1e-05, elementwise_affine=True)
            (attn): WindowAttention(
              dim=60, window_size=(8, 8), num_heads=6
              (qkv): Linear(in_features=60, out_features=180, bias=True)
              (attn_drop): Dropout(p=0.0, inplace=False)
              (proj): Linear(in_features=60, out_features=60, bias=True)
              (proj_drop): Dropout(p=0.0, inplace=False)
              (softmax): Softmax(dim=-1)
            )
            (drop_path): DropPath()
            (norm2): LayerNorm((60,), eps=1e-05, elementwise_affine=True)
            (mlp): Mlp(
              (fc1): Linear(in_features=60, out_features=120, bias=True)
              (act): GELU(approximate='none')
              (fc2): Linear(in_features=120, out_features=60, bias=True)
              (drop): Dropout(p=0.0, inplace=False)
            )
          )
        )
      )
      (conv): Conv2d(60, 60, kernel_size=(3, 3), stride=(1, 1), padding=(1, 1))
      (patch_embed): PatchEmbed()
      (patch_unembed): PatchUnEmbed()
    )
  )
  (norm): LayerNorm((60,), eps=1e-05, elementwise_affine=True)
  (conv_after_body): Conv2d(60, 60, kernel_size=(3, 3), stride=(1, 1), padding=(1, 1))
  (upsample): UpsampleOneStep(
    (0): Conv2d(60, 48, kernel_size=(3, 3), stride=(1, 1), padding=(1, 1))
    (1): PixelShuffle(upscale_factor=4)
  )
)
2023-06-10 22:06:06,116 INFO: Loading SwinIR model from /home/phips/Documents/traiNNer-redux-FJ/experiments/4xHFA2kLUDVAESwinIR_light/models/net_g_350000.pth, with param key: [params_ema].
2023-06-10 22:06:06,196 INFO: Model [SwinIRModel] is created.
2023-06-10 22:06:06,196 INFO: Testing LUDVAE_TEST...
…
