…
        type: calculate_psnr
        crop_border: 4
        test_y_channel: False
      ]
      ssim:[
        type: calculate_ssim
        crop_border: 4
        test_y_channel: False
      ]
    ]
  ]
  dist: False
  rank: 0
  world_size: 1
  auto_resume: False
  is_train: False

2023-06-10 22:11:37,327 INFO: Dataset [PairedImageDataset] - LUDVAE_TEST is built.
2023-06-10 22:11:37,327 INFO: Number of test images in LUDVAE_TEST: 14
2023-06-10 22:11:37,373 INFO: Network [SRFormer] is created.
2023-06-10 22:11:38,107 INFO: Network: SRFormer, with parameters: 872,748
2023-06-10 22:11:38,107 INFO: SRFormer(
  (conv_first): Conv2d(3, 60, kernel_size=(3, 3), stride=(1, 1), padding=(1, 1))
  (patch_embed): PatchEmbed(
    (norm): LayerNorm((60,), eps=1e-05, elementwise_affine=True)
  )
  (patch_unembed): PatchUnEmbed()
  (pos_drop): Dropout(p=0.0, inplace=False)
  (layers): ModuleList(
    (0): PSA_Group(
      (residual_group): BasicLayer(
        dim=60, input_resolution=(64, 64), depth=6
        (blocks): ModuleList(
          (0): PSA_Block(
            dim=60, input_resolution=(64, 64), num_heads=6, window_size=16, shift_size=0, mlp_ratio=2
            (norm1): LayerNorm((60,), eps=1e-05, elementwise_affine=True)
            (attn): PSA(
              dim=60, window_size=(8, 8), num_heads=6
              (kv): Linear(in_features=60, out_features=30, bias=True)
              (q): Linear(in_features=60, out_features=60, bias=True)
              (attn_drop): Dropout(p=0.0, inplace=False)
              (proj): Linear(in_features=60, out_features=60, bias=True)
              (proj_drop): Dropout(p=0.0, inplace=False)
              (softmax): Softmax(dim=-1)
            )
            (drop_path): Identity()
            (norm2): LayerNorm((60,), eps=1e-05, elementwise_affine=True)
            (mlp): ConvFFN(
              (fc1): Linear(in_features=60, out_features=120, bias=True)
              (act): GELU(approximate='none')
              (before_add): emptyModule()
              (after_add): emptyModule()
              (dwconv): dwconv(
                (depthwise_conv): Sequential(
                  (0): Conv2d(120, 120, kernel_size=(5, 5), stride=(1, 1), padding=(2, 2), groups=120)
                  (1): GELU(approximate='none')
                )
              )
              (fc2): Linear(in_features=120, out_features=60, bias=True)
              (drop): Dropout(p=0.0, inplace=False)
            )
            (after_norm1): emptyModule()
            (after_attention): emptyModule()
            (residual_after_attention): emptyModule()
            (after_norm2): emptyModule()
            (after_mlp): emptyModule()
            (residual_after_mlp): emptyModule()
          )
          (1): PSA_Block(
            dim=60, input_resolution=(64, 64), num_heads=6, window_size=16, shift_size=8, mlp_ratio=2
            (norm1): LayerNorm((60,), eps=1e-05, elementwise_affine=True)
            (attn): PSA(
              dim=60, window_size=(8, 8), num_heads=6
              (kv): Linear(in_features=60, out_features=30, bias=True)
              (q): Linear(in_features=60, out_features=60, bias=True)
              (attn_drop): Dropout(p=0.0, inplace=False)
              (proj): Linear(in_features=60, out_features=60, bias=True)
              (proj_drop): Dropout(p=0.0, inplace=False)
              (softmax): Softmax(dim=-1)
            )
            (drop_path): DropPath()
            (norm2): LayerNorm((60,), eps=1e-05, elementwise_affine=True)
            (mlp): ConvFFN(
              (fc1): Linear(in_features=60, out_features=120, bias=True)
              (act): GELU(approximate='none')
              (before_add): emptyModule()
              (after_add): emptyModule()
              (dwconv): dwconv(
                (depthwise_conv): Sequential(
                  (0): Conv2d(120, 120, kernel_size=(5, 5), stride=(1, 1), padding=(2, 2), groups=120)
                  (1): GELU(approximate='none')
                )
              )
              (fc2): Linear(in_features=120, out_features=60, bias=True)
              (drop): Dropout(p=0.0, inplace=False)
            )
            (after_norm1): emptyModule()
            (after_attention): emptyModule()
            (residual_after_attention): emptyModule()
            (after_norm2): emptyModule()
            (after_mlp): emptyModule()
            (residual_after_mlp): emptyModule()
          )
          (2): PSA_Block(
            dim=60, input_resolution=(64, 64), num_heads=6, window_size=16, shift_size=0, mlp_ratio=2
            (norm1): LayerNorm((60,), eps=1e-05, elementwise_affine=True)
            (attn): PSA(
              dim=60, window_size=(8, 8), num_heads=6
              (kv): Linear(in_features=60, out_features=30, bias=True)
              (q): Linear(in_features=60, out_features=60, bias=True)
              (attn_drop): Dropout(p=0.0, inplace=False)
              (proj): Linear(in_features=60, out_features=60, bias=True)
              (proj_drop): Dropout(p=0.0, inplace=False)
              (softmax): Softmax(dim=-1)
            )
            (drop_path): DropPath()
            (norm2): LayerNorm((60,), eps=1e-05, elementwise_affine=True)
            (mlp): ConvFFN(
              (fc1): Linear(in_features=60, out_features=120, bias=True)
              (act): GELU(approximate='none')
              (before_add): emptyModule()
              (after_add): emptyModule()
              (dwconv): dwconv(
                (depthwise_conv): Sequential(
                  (0): Conv2d(120, 120, kernel_size=(5, 5), stride=(1, 1), padding=(2, 2), groups=120)
                  (1): GELU(approximate='none')
                )
              )
              (fc2): Linear(in_features=120, out_features=60, bias=True)
              (drop): Dropout(p=0.0, inplace=False)
            )
            (after_norm1): emptyModule()
            (after_attention): emptyModule()
            (residual_after_attention): emptyModule()
            (after_norm2): emptyModule()
            (after_mlp): emptyModule()
            (residual_after_mlp): emptyModule()
          )
          (3): PSA_Block(
            dim=60, input_resolution=(64, 64), num_heads=6, window_size=16, shift_size=8, mlp_ratio=2
            (norm1): LayerNorm((60,), eps=1e-05, elementwise_affine=True)
            (attn): PSA(
              dim=60, window_size=(8, 8), num_heads=6
              (kv): Linear(in_features=60, out_features=30, bias=True)
              (q): Linear(in_features=60, out_features=60, bias=True)
              (attn_drop): Dropout(p=0.0, inplace=False)
              (proj): Linear(in_features=60, out_features=60, bias=True)
              (proj_drop): Dropout(p=0.0, inplace=False)
              (softmax): Softmax(dim=-1)
            )
            (drop_path): DropPath()
            (norm2): LayerNorm((60,), eps=1e-05, elementwise_affine=True)
            (mlp): ConvFFN(
              (fc1): Linear(in_features=60, out_features=120, bias=True)
              (act): GELU(approximate='none')
              (before_add): emptyModule()
              (after_add): emptyModule()
              (dwconv): dwconv(
                (depthwise_conv): Sequential(
                  (0): Conv2d(120, 120, kernel_size=(5, 5), stride=(1, 1), padding=(2, 2), groups=120)
                  (1): GELU(approximate='none')
                )
              )
              (fc2): Linear(in_features=120, out_features=60, bias=True)
              (drop): Dropout(p=0.0, inplace=False)
            )
            (after_norm1): emptyModule()
            (after_attention): emptyModule()
            (residual_after_attention): emptyModule()
            (after_norm2): emptyModule()
            (after_mlp): emptyModule()
            (residual_after_mlp): emptyModule()
          )
          (4): PSA_Block(
            dim=60, input_resolution=(64, 64), num_heads=6, window_size=16, shift_size=0, mlp_ratio=2
            (norm1): LayerNorm((60,), eps=1e-05, elementwise_affine=True)
            (attn): PSA(
              dim=60, window_size=(8, 8), num_heads=6
              (kv): Linear(in_features=60, out_features=30, bias=True)
              (q): Linear(in_features=60, out_features=60, bias=True)
              (attn_drop): Dropout(p=0.0, inplace=False)
              (proj): Linear(in_features=60, out_features=60, bias=True)
              (proj_drop): Dropout(p=0.0, inplace=False)
              (softmax): Softmax(dim=-1)
            )
            (drop_path): DropPath()
            (norm2): LayerNorm((60,), eps=1e-05, elementwise_affine=True)
            (mlp): ConvFFN(
              (fc1): Linear(in_features=60, out_features=120, bias=True)
              (act): GELU(approximate='none')
              (before_add): emptyModule()
              (after_add): emptyModule()
              (dwconv): dwconv(
                (depthwise_conv): Sequential(
                  (0): Conv2d(120, 120, kernel_size=(5, 5), stride=(1, 1), padding=(2, 2), groups=120)
                  (1): GELU(approximate='none')
                )
              )
              (fc2): Linear(in_features=120, out_features=60, bias=True)
              (drop): Dropout(p=0.0, inplace=False)
            )
            (after_norm1): emptyModule()
            (after_attention): emptyModule()
            (residual_after_attention): emptyModule()
            (after_norm2): emptyModule()
            (after_mlp): emptyModule()
            (residual_after_mlp): emptyModule()
          )
          (5): PSA_Block(
            dim=60, input_resolution=(64, 64), num_heads=6, window_size=16, shift_size=8, mlp_ratio=2
            (norm1): LayerNorm((60,), eps=1e-05, elementwise_affine=True)
            (attn): PSA(
              dim=60, window_size=(8, 8), num_heads=6
              (kv): Linear(in_features=60, out_features=30, bias=True)
              (q): Linear(in_features=60, out_features=60, bias=True)
              (attn_drop): Dropout(p=0.0, inplace=False)
              (proj): Linear(in_features=60, out_features=60, bias=True)
              (proj_drop): Dropout(p=0.0, inplace=False)
              (softmax): Softmax(dim=-1)
            )
            (drop_path): DropPath()
            (norm2): LayerNorm((60,), eps=1e-05, elementwise_affine=True)
            (mlp): ConvFFN(
              (fc1): Linear(in_features=60, out_features=120, bias=True)
              (act): GELU(approximate='none')
              (before_add): emptyModule()
              (after_add): emptyModule()
              (dwconv): dwconv(
                (depthwise_conv): Sequential(
                  (0): Conv2d(120, 120, kernel_size=(5, 5), stride=(1, 1), padding=(2, 2), groups=120)
                  (1): GELU(approximate='none')
                )
              )
              (fc2): Linear(in_features=120, out_features=60, bias=True)
              (drop): Dropout(p=0.0, inplace=False)
            )
            (after_norm1): emptyModule()
            (after_attention): emptyModule()
            (residual_after_attention): emptyModule()
            (after_norm2): emptyModule()
            (after_mlp): emptyModule()
            (residual_after_mlp): emptyModule()
          )
        )
      )
      (conv): Conv2d(60, 60, kernel_size=(3, 3), stride=(1, 1), padding=(1, 1))
      (patch_embed): PatchEmbed()
      (patch_unembed): PatchUnEmbed()
      (before_PSA_Group_conv): emptyModule()
      (after_PSA_Group_conv): emptyModule()
      (after_PSA_Group_Residual): emptyModule()
    )
    (1-3): 3 x PSA_Group(
      (residual_group): BasicLayer(
        dim=60, input_resolution=(64, 64), depth=6
        (blocks): ModuleList(
          (0): PSA_Block(
            dim=60, input_resolution=(64, 64), num_heads=6, window_size=16, shift_size=0, mlp_ratio=2
            (norm1): LayerNorm((60,), eps=1e-05, elementwise_affine=True)
            (attn): PSA(
              dim=60, window_size=(8, 8), num_heads=6
              (kv): Linear(in_features=60, out_features=30, bias=True)
              (q): Linear(in_features=60, out_features=60, bias=True)
              (attn_drop): Dropout(p=0.0, inplace=False)
              (proj): Linear(in_features=60, out_features=60, bias=True)
              (proj_drop): Dropout(p=0.0, inplace=False)
              (softmax): Softmax(dim=-1)
            )
            (drop_path): DropPath()
            (norm2): LayerNorm((60,), eps=1e-05, elementwise_affine=True)
            (mlp): ConvFFN(
              (fc1): Linear(in_features=60, out_features=120, bias=True)
              (act): GELU(approximate='none')
              (before_add): emptyModule()
              (after_add): emptyModule()
              (dwconv): dwconv(
                (depthwise_conv): Sequential(
                  (0): Conv2d(120, 120, kernel_size=(5, 5), stride=(1, 1), padding=(2, 2), groups=120)
                  (1): GELU(approximate='none')
                )
              )
              (fc2): Linear(in_features=120, out_features=60, bias=True)
              (drop): Dropout(p=0.0, inplace=False)
            )
            (after_norm1): emptyModule()
            (after_attention): emptyModule()
            (residual_after_attention): emptyModule()
            (after_norm2): emptyModule()
            (after_mlp): emptyModule()
            (residual_after_mlp): emptyModule()
          )
          (1): PSA_Block(
            dim=60, input_resolution=(64, 64), num_heads=6, window_size=16, shift_size=8, mlp_ratio=2
            (norm1): LayerNorm((60,), eps=1e-05, elementwise_affine=True)
            (attn): PSA(
              dim=60, window_size=(8, 8), num_heads=6
              (kv): Linear(in_features=60, out_features=30, bias=True)
              (q): Linear(in_features=60, out_features=60, bias=True)
              (attn_drop): Dropout(p=0.0, inplace=False)
              (proj): Linear(in_features=60, out_features=60, bias=True)
              (proj_drop): Dropout(p=0.0, inplace=False)
              (softmax): Softmax(dim=-1)
            )
            (drop_path): DropPath()
            (norm2): LayerNorm((60,), eps=1e-05, elementwise_affine=True)
            (mlp): ConvFFN(
              (fc1): Linear(in_features=60, out_features=120, bias=True)
              (act): GELU(approximate='none')
              (before_add): emptyModule()
              (after_add): emptyModule()
              (dwconv): dwconv(
                (depthwise_conv): Sequential(
                  (0): Conv2d(120, 120, kernel_size=(5, 5), stride=(1, 1), padding=(2, 2), groups=120)
                  (1): GELU(approximate='none')
                )
              )
              (fc2): Linear(in_features=120, out_features=60, bias=True)
              (drop): Dropout(p=0.0, inplace=False)
            )
            (after_norm1): emptyModule()
            (after_attention): emptyModule()
            (residual_after_attention): emptyModule()
            (after_norm2): emptyModule()
            (after_mlp): emptyModule()
            (residual_after_mlp): emptyModule()
          )
          (2): PSA_Block(
            dim=60, input_resolution=(64, 64), num_heads=6, window_size=16, shift_size=0, mlp_ratio=2
            (norm1): LayerNorm((60,), eps=1e-05, elementwise_affine=True)
            (attn): PSA(
              dim=60, window_size=(8, 8), num_heads=6
              (kv): Linear(in_features=60, out_features=30, bias=True)
              (q): Linear(in_features=60, out_features=60, bias=True)
              (attn_drop): Dropout(p=0.0, inplace=False)
              (proj): Linear(in_features=60, out_features=60, bias=True)
              (proj_drop): Dropout(p=0.0, inplace=False)
              (softmax): Softmax(dim=-1)
            )
            (drop_path): DropPath()
            (norm2): LayerNorm((60,), eps=1e-05, elementwise_affine=True)
            (mlp): ConvFFN(
              (fc1): Linear(in_features=60, out_features=120, bias=True)
              (act): GELU(approximate='none')
              (before_add): emptyModule()
              (after_add): emptyModule()
              (dwconv): dwconv(
                (depthwise_conv): Sequential(
                  (0): Conv2d(120, 120, kernel_size=(5, 5), stride=(1, 1), padding=(2, 2), groups=120)
                  (1): GELU(approximate='none')
                )
              )
              (fc2): Linear(in_features=120, out_features=60, bias=True)
              (drop): Dropout(p=0.0, inplace=False)
            )
            (after_norm1): emptyModule()
            (after_attention): emptyModule()
            (residual_after_attention): emptyModule()
            (after_norm2): emptyModule()
            (after_mlp): emptyModule()
            (residual_after_mlp): emptyModule()
          )
          (3): PSA_Block(
            dim=60, input_resolution=(64, 64), num_heads=6, window_size=16, shift_size=8, mlp_ratio=2
            (norm1): LayerNorm((60,), eps=1e-05, elementwise_affine=True)
            (attn): PSA(
              dim=60, window_size=(8, 8), num_heads=6
              (kv): Linear(in_features=60, out_features=30, bias=True)
              (q): Linear(in_features=60, out_features=60, bias=True)
              (attn_drop): Dropout(p=0.0, inplace=False)
              (proj): Linear(in_features=60, out_features=60, bias=True)
              (proj_drop): Dropout(p=0.0, inplace=False)
              (softmax): Softmax(dim=-1)
            )
            (drop_path): DropPath()
            (norm2): LayerNorm((60,), eps=1e-05, elementwise_affine=True)
            (mlp): ConvFFN(
              (fc1): Linear(in_features=60, out_features=120, bias=True)
              (act): GELU(approximate='none')
              (before_add): emptyModule()
              (after_add): emptyModule()
              (dwconv): dwconv(
                (depthwise_conv): Sequential(
                  (0): Conv2d(120, 120, kernel_size=(5, 5), stride=(1, 1), padding=(2, 2), groups=120)
                  (1): GELU(approximate='none')
                )
              )
              (fc2): Linear(in_features=120, out_features=60, bias=True)
              (drop): Dropout(p=0.0, inplace=False)
            )
            (after_norm1): emptyModule()
            (after_attention): emptyModule()
            (residual_after_attention): emptyModule()
            (after_norm2): emptyModule()
            (after_mlp): emptyModule()
            (residual_after_mlp): emptyModule()
          )
          (4): PSA_Block(
            dim=60, input_resolution=(64, 64), num_heads=6, window_size=16, shift_size=0, mlp_ratio=2
            (norm1): LayerNorm((60,), eps=1e-05, elementwise_affine=True)
            (attn): PSA(
              dim=60, window_size=(8, 8), num_heads=6
              (kv): Linear(in_features=60, out_features=30, bias=True)
              (q): Linear(in_features=60, out_features=60, bias=True)
              (attn_drop): Dropout(p=0.0, inplace=False)
              (proj): Linear(in_features=60, out_features=60, bias=True)
              (proj_drop): Dropout(p=0.0, inplace=False)
              (softmax): Softmax(dim=-1)
            )
            (drop_path): DropPath()
            (norm2): LayerNorm((60,), eps=1e-05, elementwise_affine=True)
            (mlp): ConvFFN(
              (fc1): Linear(in_features=60, out_features=120, bias=True)
              (act): GELU(approximate='none')
              (before_add): emptyModule()
              (after_add): emptyModule()
              (dwconv): dwconv(
                (depthwise_conv): Sequential(
                  (0): Conv2d(120, 120, kernel_size=(5, 5), stride=(1, 1), padding=(2, 2), groups=120)
                  (1): GELU(approximate='none')
                )
              )
              (fc2): Linear(in_features=120, out_features=60, bias=True)
              (drop): Dropout(p=0.0, inplace=False)
            )
            (after_norm1): emptyModule()
            (after_attention): emptyModule()
            (residual_after_attention): emptyModule()
            (after_norm2): emptyModule()
            (after_mlp): emptyModule()
            (residual_after_mlp): emptyModule()
          )
          (5): PSA_Block(
            dim=60, input_resolution=(64, 64), num_heads=6, window_size=16, shift_size=8, mlp_ratio=2
            (norm1): LayerNorm((60,), eps=1e-05, elementwise_affine=True)
            (attn): PSA(
              dim=60, window_size=(8, 8), num_heads=6
              (kv): Linear(in_features=60, out_features=30, bias=True)
              (q): Linear(in_features=60, out_features=60, bias=True)
              (attn_drop): Dropout(p=0.0, inplace=False)
              (proj): Linear(in_features=60, out_features=60, bias=True)
              (proj_drop): Dropout(p=0.0, inplace=False)
              (softmax): Softmax(dim=-1)
            )
            (drop_path): DropPath()
            (norm2): LayerNorm((60,), eps=1e-05, elementwise_affine=True)
            (mlp): ConvFFN(
              (fc1): Linear(in_features=60, out_features=120, bias=True)
              (act): GELU(approximate='none')
              (before_add): emptyModule()
              (after_add): emptyModule()
              (dwconv): dwconv(
                (depthwise_conv): Sequential(
                  (0): Conv2d(120, 120, kernel_size=(5, 5), stride=(1, 1), padding=(2, 2), groups=120)
                  (1): GELU(approximate='none')
                )
              )
              (fc2): Linear(in_features=120, out_features=60, bias=True)
              (drop): Dropout(p=0.0, inplace=False)
            )
            (after_norm1): emptyModule()
            (after_attention): emptyModule()
            (residual_after_attention): emptyModule()
            (after_norm2): emptyModule()
            (after_mlp): emptyModule()
            (residual_after_mlp): emptyModule()
          )
        )
      )
      (conv): Conv2d(60, 60, kernel_size=(3, 3), stride=(1, 1), padding=(1, 1))
      (patch_embed): PatchEmbed()
      (patch_unembed): PatchUnEmbed()
      (before_PSA_Group_conv): emptyModule()
      (after_PSA_Group_conv): emptyModule()
      (after_PSA_Group_Residual): emptyModule()
    )
  )
  (norm): LayerNorm((60,), eps=1e-05, elementwise_affine=True)
  (conv_after_body): Conv2d(60, 60, kernel_size=(3, 3), stride=(1, 1), padding=(1, 1))
  (upsample): UpsampleOneStep(
    (0): Conv2d(60, 48, kernel_size=(3, 3), stride=(1, 1), padding=(1, 1))
    (1): PixelShuffle(upscale_factor=4)
  )
)
2023-06-10 22:11:38,190 INFO: Loading SRFormer model from /home/phips/Documents/traiNNer-redux-FJ/experiments/2xHFA2kLUDVAESRFormer_light/models/net_g_350000.pth, with param key: [params_ema].
2023-06-10 22:11:38,237 INFO: Model [GeneralGANModel] is created.
2023-06-10 22:11:38,237 INFO: Testing LUDVAE_TEST...
…
